…
 rat_alpha_warmup_steps | 5000                
 srs_emb_path           | ./data/beauty/han...
 tau                    | 0.2                 
 test_all               | 0                   
 topk                   | 5,10,20,50          
 use_llmemb             | 1                   
 use_mvtc               | 0                   
===============================================
INFO:root:Device: cuda
INFO:root:Load corpus from ./data/beauty/SeqReader.pkl
INFO:root:[SIERec] Train from scratch
INFO:root:#params: 2011521
INFO:root:SIERec(
  (interest_extractor): MultiInterestExtractor(
    (i_embeddings): Embedding(12102, 64)
    (p_embeddings): Embedding(21, 64)
    (adapter): Sequential(
      (0): Linear(in_features=1536, out_features=768, bias=True)
      (1): GELU(approximate='none')
      (2): Linear(in_features=768, out_features=64, bias=True)
      (3): LayerNorm((64,), eps=1e-05, elementwise_affine=True)
    )
    (srs_emb): Embedding(12102, 64)
    (prompt1): Embedding(3, 64)
    (prompt2): Embedding(3, 64)
    (W1): Linear(in_features=64, out_features=8, bias=True)
    (W2): Linear(in_features=8, out_features=4, bias=True)
    (W3): Linear(in_features=64, out_features=8, bias=True)
    (W4): Linear(in_features=8, out_features=1, bias=True)
  )
  (proj): Sequential(
    (proj_0): Linear(in_features=64, out_features=64, bias=True)
    (dropout_0): Dropout(p=0.5, inplace=False)
    (relu_0): ReLU(inplace=True)
    (proj_final): Linear(in_features=64, out_features=4, bias=True)
  )
  (align_loss_func): InfoNCEAlign()
)
INFO:root:Optimizer: Adam
INFO:root:Epoch 1     loss=0.4310 [20.3 s]    dev=(HR@5:0.1159,NDCG@5:0.0771) [12.4 s] *
INFO:root:Epoch 2     loss=0.3173 [16.6 s]    dev=(HR@5:0.1300,NDCG@5:0.0866) [12.5 s] *
INFO:root:Epoch 3     loss=0.2765 [16.7 s]    dev=(HR@5:0.1383,NDCG@5:0.0914) [12.6 s] *
INFO:root:Epoch 4     loss=0.2509 [17.5 s]    dev=(HR@5:0.1465,NDCG@5:0.0983) [12.7 s] *
…
