…
 num_workers            | 5         
 optimizer              | Adam      
 prompt_num             | 3         
 random_seed            | 42        
 rat_alpha_warmup_steps | 0         
 srs_emb_path           |           
 tau                    | 0.2       
 test_all               | 0         
 topk                   | 5,10,20,50
 use_llmemb             | 0         
=====================================
INFO:root:Device: cuda
INFO:root:Load corpus from ./data/toys/SeqReader.pkl
INFO:root:[PoMRec] Train from scratch
INFO:root:#params: 5048643
INFO:root:PoMRec(
  (interest_extractor): MultiInterestExtractor(
    (i_embeddings): Embedding(78772, 64)
    (p_embeddings): Embedding(21, 64)
    (prompt1): Embedding(3, 64)
    (prompt2): Embedding(3, 64)
    (W1): Linear(in_features=64, out_features=8, bias=True)
    (W2): Linear(in_features=8, out_features=4, bias=True)
    (W3): Linear(in_features=64, out_features=8, bias=True)
    (W4): Linear(in_features=8, out_features=1, bias=True)
  )
  (proj): Sequential(
    (proj_0): Linear(in_features=64, out_features=64, bias=True)
    (dropout_0): Dropout(p=0.5, inplace=False)
    (relu_0): ReLU(inplace=True)
    (proj_final): Linear(in_features=64, out_features=4, bias=True)
  )
)
INFO:root:Optimizer: Adam
INFO:root:Epoch 1     loss=0.4780 [134.4 s]    dev=(HR@5:0.0938,NDCG@5:0.0619) [23.1 s] *
INFO:root:Epoch 2     loss=0.3474 [130.0 s]    dev=(HR@5:0.1312,NDCG@5:0.0899) [23.3 s] *
INFO:root:Epoch 3     loss=0.2774 [130.5 s]    dev=(HR@5:0.1624,NDCG@5:0.1134) [23.4 s] *
INFO:root:Epoch 4     loss=0.2290 [131.4 s]    dev=(HR@5:0.1813,NDCG@5:0.1280) [23.5 s] *
…
